neural_clbf/systems/controller_data/Fa_net_12_3_full_Lip16.pth (torch_old, 14170 bytes, 8 tensors)

fc1.weight f8 [25, 12]
0	0xbfdd8ac2e823fe3d	-0.4615943209646252
1	0x3fb227209f0630ac	0.07090953714777254
2	0x3fc029e364996674	0.1262783280570151
3	0x3fa806341926e384	0.046922329016019254
4	0xbfb02bedfa978083	-0.06317031257595045
5	0xbfb775be6b0264b2	-0.09164037811787543
6	0xbfb70cf700b78422	-0.09004157798291648
7	0xbfb4832d227b7c21	-0.08012659160475312
8	0x3fb105007ec2ab23	0.06648257345902357
9	0xbf8dca8bf0cca405	-0.014546483312715361
10	0xbf79c7748a1f7b4b	-0.006293730957593289
11	0x3f8728c49a38d229	0.01130822749755918
12	0x3fbc181498ae22e9	0.10974243857902945
13	0xbfd6b5e3addff31e	-0.35485164623223564
14	0xbfa27b3b6d999afd	-0.03609643662348636
15	0x3fa39dad76dfcf35	0.03831235958196403
16	0xbfcb0a945294617b	-0.21126035721023215
17	0x3fdf42762b38cfcb	0.4884314939583844
18	0x3f92288be2b46906	0.017732797347982852
19	0x3f8d7f3c3966f806	0.014402838231827541
20	0x3f9284f7125bcd87	0.018085346694488826
21	0x3fa04095997e19f4	0.031742739664924274
22	0xbfc502b0e2cdbaea	-0.1641446216048828
23	0xbf73c6d4986ecb6c	-0.004828291369380771
24	0x3fe30e1936015236	0.5954710058964057
25	0xbf867d576126539a	-0.010981257107042276
26	0xbf8e86b478894345	-0.014905366829368947
27	0xbfb04858245b5f7d	-0.06360388648624667
28	0xbfd220eb11b9b132	-0.2832591698741168
29	0x3f9b547c06b3c451	0.026689470204420754
30	0x3fa0b448d5338ea1	0.03262546160274594
31	0x3f9827982b38962a	0.023588540685656557
32	0xbfa0206aa61177b6	-0.03149731900405987
33	0x3fb2131e16e0bd14	0.07060421045820348
34	0xbfbc53db548ae2ed	-0.11065455259348385
35	0x3f7e949a63bda89a	0.007465937694954539
36	0x3fac0081d1b2afb2	0.0546913689116474
37	0x3fa810edc4811369	0.04700415633900585
38	0x3fdb79cdd3f3e0b6	0.42930932711125125
39	0x3fb0090a45f0f588	0.0626379414324757
40	0x3fc7c453b134ba82	0.18567892220149324
41	0xbfe785fd009fe7bb	-0.7351059925269888
42	0xbfd01ffdc3e5d7cb	-0.2519525921883285
43	0xbfa32791d10f65d6	-0.037411267061269335
44	0xbf7e70b81c9a4a69	-0.007431716143076452
45	0x3fad08ded981c474	0.056708301592956284
46	0xbfbac9c912a083d6	-0.10464150147210147
47	0x3f6ff1748d1972f4	0.0038993145360975926
48	0xbfc6eda23d6eaf61	-0.17912700652720573
49	0xbfb9f0eb6dcbe0b3	-0.10133239203048809
50	0x3fc40704dc880e2c	0.15646420257699967
51	0xbfc122601c79797d	-0.13386155500752386
52	0x3fde9dd2b3232116	0.4783827542674016
53	0x3fcf1eb9c46e900d	0.24312517253304158
54	0xbfc5944d28b6080f	-0.16858829963536023
55	0xbf50ba0e1a7846f6	-0.001020921490525626
56	0x3fc298081fdddcf9	0.14526464038838308
57	0x3fab493d471c7e28	0.05329314702089177
58	0x3fcc2e7189108a3c	0.22016734306915164
59	0xbf91af6a676a81ca	-0.017270720064176882
60	0x3fa188fc770a5d3b	0.03424824669962808
61	0xbfbc5983fb2cd559	-0.11074089891629536
62	0x3fbe0838cde2f090	0.11731295610928982
63	0x3f8873e09114930f	0.011939768245221609
64	0x3fc6068fcc24084b	0.17207524745760092
65	0xbfa693e316ec6016	-0.044097038791903895
66	0x3fab071f25ced0c4	0.05278870903512847
67	0x3f53cfb41bc33499	0.0012091883536869184
68	0x3fc43ae51b78c02d	0.1580473312510561
69	0x3fb1f2f3f9c0f314	0.07011341903212226
70	0x3fd47dcf769be8d0	0.320178857640383
71	0x3f50c170f2ef4d13	0.0010226824776865026
72	0x3f89725848a6bc86	0.012425126759664683
73	0xbf9de547192c1d9a	-0.029194937621495144
74	0x3fb3eb07bdb48446	0.07780502683137155
75	0x3fb0c7e4f7cdbae1	0.06555014657872561
76	0x3fd0a085f8f30146	0.25979756652306596
77	0xbfbb08b75fb4a2c2	-0.10560175024569232
78	0x3fa963279adc808e	0.04958461537739921
79	0x3fab8ef7ed45c4b3	0.05382513781922551
80	0x3fb279190d1cb004	0.07216030664557144
81	0x3f8640dd42e176af	0.010865906337296975
82	0x3fd18b25207e606d	0.27411773846825477
83	0xbfb46848f32f8f35	-0.07971626221802526
84	0x3fa8e20abae2d79a	0.04859956294369212
85	0xbf9770de2b5a3f87	-0.022891494174984508
86	0xbfaa28462bc40197	-0.05108851703880928
87	0x3fcef6e0b86114a5	0.2419091129578749
88	0xbfe67703787f740b	-0.7020280221437373
89	0x3fdc7989626a4457	0.44491800890779615
90	0xbfb4ecc7f4a0e7a5	-0.08173799250007947
91	0x3fb94cae24d09c30	0.09882629774857388
92	0x3fbb762131d0bc34	0.10727126566119766
93	0x3fb20626b17eaf1a	0.07040635903711881
94	0x3fd07700043a65ba	0.2572631875314887
95	0x3faccd90b1221ffe	0.05625583803436028
96	0x3fc44eac5000f0e4	0.15865091234616735
97	0x3f9a1418b4a96620	0.025467287089076973
98	0xbfa884eef38d008d	-0.04788920138389683
99	0xbfb1e1b189269f4e	-0.06985005949411269
100	0xbfdfa573140ce8b8	-0.49447323759126105
101	0x3fe8134bbc2297c8	0.7523554491533497
102	0x3fbfbed67a47dbfb	0.12400570378655111
103	0x3f80eb0430ab5b58	0.008260758147498201
104	0xbfbadd1290f4a187	-0.10493579901652171
105	0x3f7723e269548729	0.005649456424437629
106	0xbfcc0c86bddb5498	-0.21913227339124286
107	0xbf86082b7eb2cd36	-0.010757770351438194
108	0x3f60a8654eb999be	0.0020334223425379763
109	0xbf79d8b14edff1cd	-0.0063101698015057385
110	0x3f6b8dad06837f15	0.003363454761810556
111	0x3f53cf398fbc2cb0	0.0012090742229158673
112	0xbf636056ed12bd15	-0.0023652742171048715
113	0xbf7ad909d3e5f408	-0.006554640187798284
114	0x3f74d90e5e41f41f	0.005089813352353394
115	0x3f73678ef24b9cf9	0.004737432846673822
116	0xbf7907213fceb54a	-0.006110315208315351
117	0xbf79f33e097f6423	-0.0063354895900938095
118	0xbf7cd6ff94a97f02	-0.007040975916055238
119	0x3f7151e0b2b8b333	0.004228475310395652
120	0xbf7bf577a1421e49	-0.00682589273868179
121	0x3fd90828d521dcf1	0.3911230164880655
122	0xbfabcec39ab1294f	-0.05431185973482632
123	0xbfc56fb32637bddc	-0.16747130743122696
124	0x3fe139161c73c3eb	0.5382185512263481
125	0x3fa40464500e6e14	0.03909600713015152
126	0xbfc7915504f94373	-0.18412268393378958
127	0x3f9c6ce13e725e35	0.027759093700835364
128	0xbf9f999976df628e	-0.030859372978599135
129	0x3f4a5c18ef1c9463	0.0008044358967011052
130	0x3fd170c757db8052	0.2725084646208461
131	0x3f8218832838a847	0.008835816063840108
132	0x3f8d9daab8afbd9a	0.01446088195913724
133	0xbf9d4887e2e5cbfc	-0.028596995567067282
134	0x3fc9c2117a5a8853	0.2012349936895271
135	0x3fa33f5581e930bd	0.03759257517649093
136	0x3fb7390f0b63e140	0.09071439769821144
137	0x3fd8a4f039330fcb	0.3850670393551325
138	0x3fb44f3c4f5712f1	0.0793340390874382
139	0xbf8cc9dc8c184ade	-0.014056895280224632
140	0xbf9604541645d4f5	-0.02150088678304925
141	0x3fb1f8f95a7e1b24	0.07020529231349976
142	0xbfd2604b27d7e246	-0.287127293500394
143	0xbfa4779bcd0e56a1	-0.039975041180850164
144	0x3fa2705a255e4c39	0.03601342874676345
145	0x3fd3c501181f5975	0.3088991866656195
146	0x3fd85b55e15a2b7b	0.3805746746735889
147	0x3f88b92b8d3eacbe	0.012071933982801372
148	0x3fc28eb8e8472273	0.14498053876583902
149	0x3fc0e7631459ebc5	0.13206137174333157
150	0x3fc98390dd2bdb65	0.19932757186299024
151	0x3f6265ab001ad7ff	0.002245744691061979
152	0xbfb2a05725dfc0b2	-0.07275910067233118
153	0xbfb329915ee84b3c	-0.07485302512240549
154	0xbfbe44ba6942fb3d	-0.11823620862831503
155	0xbf988d041ceead4e	-0.023975433603181266
156	0x3fac761f7fe9655f	0.055588707317563595
157	0x3fd7781561876163	0.36670431637096196
158	0x3fb8a6fb7ccf9e38	0.09629794881004095
159	0x3fc79e7191e3d76e	0.1845228159287972
160	0x3fea94ec92d9c6a3	0.8306792133500561
161	0x3fd6526ec27a5b59	0.3487812899779122
162	0x3fd0883684b6b198	0.25831377945248724
163	0x3f884ff3bd1384fc	0.011871246535920303
164	0xbfb3a1e0a5fb5465	-0.07668880512513139
165	0x3f99b2242b673098	0.025093617581476296
166	0x3fb6fb3023530944	0.08977032530223022
167	0xbf96a4da765a6435	-0.02211324069375938
168	0x3fdf455101c747a0	0.48860573934245544
169	0xbf9224d6fef34b64	-0.01771865779012262
170	0x3fa489919c773a46	0.04011206660253612
171	0x3f9a56f2c9455cc2	0.025722306761363674
172	0x3fe952e349684ce4	0.791368144391893
173	0x3fab0f08aba2f2c8	0.05284907431766822
174	0xbfc32882ad644d49	-0.1496737810744924
175	0xbf91e7a099f2875c	-0.017485150715067163
176	0x3f8d52255f5c1304	0.014316837284704238
177	0x3fc1b0120e3d47af	0.13818574614793763
178	0xbfad9ce0731c4694	-0.05783749966771015
179	0x3f87240888905e5f	0.011299196879959781
180	0x3fa8f1679ae1cebd	0.04871677175188214
181	0xbf718c57893eac25	-0.004284231126727743
182	0xbf900ea1662d945b	-0.015680810796215954
183	0x3fd010a65e20f17b	0.25101622764829984
184	0xbfc0437f54e78287	-0.1270598568508101
185	0x3faaeccbb5185f93	0.05258785806307666
186	0xbf782d24f8843aba	-0.005902428071080374
187	0xbfb396ba3e81c244	-0.07651866937681812
188	0xbfc16c8e95bf152e	-0.1361253958877255
189	0xbfbd50c33e20b7b2	-0.11451359049598756
190	0xbfd04e0e6da06087	-0.2547641821452164
191	0xbfb310fcfd38f1af	-0.07447796995342658
192	0x3fb80466b5754f63	0.09381715707905651
193	0xbfc32289080e67b6	-0.14949143308041152
194	0xbfd98f7a27a12558	-0.3993821513182261
195	0x3fd1231334c92870	0.2677658095823352
196	0xbfc36bd511e5f5a3	-0.15172828077258513
197	0xbfe1bc509479d021	-0.5542376422804446
198	0xbfe182678d551c8e	-0.5471685181045289
199	0x3f726a55489dae25	0.004495938433915413
200	0x3fb010f5277ccdf1	0.06275875295687407
201	0x3f473949a2fb3f58	0.0007087335161148718
202	0x3fb70db7c63991e2	0.09005306806063332
203	0x3faffea442bda512	0.062489636561460796
204	0xbfc6d1023a606bae	-0.17825343943044686
205	0xbfd21bdcc4c1f8d4	-0.28295058455104294
206	0xbfbb20d93b902e9f	-0.1059699793260571
207	0x3facd0d57bc3ff6b	0.05628077636538261
208	0xbfd60d4daf64634d	-0.3445619786085004
209	0x3fd57afdd6a24087	0.3356318088563132
210	0xbfc2ca49635c00a1	-0.14679829932720614
211	0x3fa21da78c1c540b	0.03538249574027227
212	0x3faaa920b07ae822	0.052071591895085825
213	0x3f3f9a2885c2f912	0.00048221101111413465
214	0x3fb1ebad7c59a58e	0.07000240598576665
215	0x3fb525e75f412f86	0.08260961604645276
216	0xbf56c2d916a23da5	-0.0013892288211855089
217	0x3f604da5cb9bc36b	0.00199015027907772
218	0x3f6116ad5ae2b70f	0.002086008628871101
219	0xbf63d8f0a2600d43	-0.0024227809799427804
220	0x3f6eaea33776befb	0.003745383055239302
221	0x3f6ab05a1c15f4d9	0.0032579193072580334
222	0xbf672fc2c584cb85	-0.0028303913242324085
223	0x3f7d9e80c153eabd	0.007231238317440156
224	0x3f8038e5e7b26c71	0.007921024449663446
225	0xbf780fbfee08cba7	-0.005874395109048892
226	0x3f74f2275d92fc7a	0.005113748332575269
227	0xbf7c4b551ebc7c28	-0.006907780170677426
228	0xbfa682224e3a4103	-0.043961593674909615
229	0x3fc61d418c8af40c	0.17276782381478062
230	0xbfc28c7f06574ffc	-0.14491260347006107
231	0xbfcbc50f8a575b21	-0.2169513154501255
232	0xbfd207d5e3c8c12a	-0.28172824139166386
233	0xbfdc44c3b6ce020b	-0.44169705249808605
234	0xbfa760e12eecb181	-0.04566100786027772
235	0xbf84d236139dbaef	-0.010166571115147486
236	0xbfadebc538e98fdc	-0.05843941039782383
237	0xbfc0cc3366c83d7d	-0.13123171347295318
238	0x3fae0b9ef37abe5a	0.05868241045152152
239	0x3f9813d42747fec0	0.02351314058068854
240	0xbfab042670f41ab6	-0.05276603821589758
241	0xbfbd8386642d21b4	-0.11528816171369877
242	0xbfaca22eef57f034	-0.05592486068414396
243	0xbf9f131a8a324291	-0.030346312222322928
244	0x3f93e257d1654586	0.019418117671482736
245	0x3fdb8bce158b5598	0.4304080210107144
246	0xbfc2893e4b993db7	-0.14481333438241759
247	0x3fa95ac040007c17	0.04952050000451196
248	0x3fb3c5d27b8892f5	0.07723727718309788
249	0x3fa274451614ff4e	0.03604331869655529
250	0x3fd0f63c8ab19107	0.2650290827207446
251	0x3fa6725a7e05df09	0.04384119785657787
252	0xbfc3f7225583b6f0	-0.1559794347335166
253	0xbfa741f633d8b0c3	-0.045425123051559456
254	0x3fb8a8f2c3dbf29f	0.09632794648855246
255	0x3f9d52d72c9080ae	0.028636324019431107

fc1.bias f8 [25]
0	0x3fda42cbb6286381	0.4103268889316994
1	0x3fc03d48a00f4c23	0.12687022986810445
2	0x3f8185e66dcaa615	0.008556175447057371
3	0x3f64d9f573857e27	0.0025453371019208584
4	0xbf89dc02a049a2c5	-0.01262666751536424
5	0xbfbb54eadb7a0f5a	-0.1067644868690513
6	0x3fa83e8555451514	0.04735199609653243
7	0xbfd4074b5ee3e895	-0.312945215860631
8	0x3fd06bd75a919cac	0.2565821060620219
9	0xbfcb89f0197b3c23	-0.21514703029831236
10	0x3f8009120fc0b21f	0.007829800706610488
11	0x3fd5bd269d760cce	0.33966985108436354
12	0x3fc277a5623d38b6	0.14427630707581834
13	0xbfc0e0ead90debac	-0.13186393354757564
14	0xbfc1ee92c7bba43f	-0.14009318115793865
15	0x3fd2fcae107a9813	0.2966723595549194
16	0xbfd2605b3f090794	-0.28713112979686994
17	0x3fc7765aee149c4c	0.1832994139196863
18	0xbfd0fd71efec7e11	-0.2654690592771383
19	0x3fdcee384d240bdd	0.45203979047090376
20	0xbfb39bcc01c09d6a	-0.07659602206023455
21	0x3fe0b6d7bf0e96d7	0.5223196727353877
22	0xbfba83a352401fe9	-0.1035711360747197
23	0xbfb28eee06913858	-0.07249343548139231
24	0xbf9bdcb17ff2bac9	-0.027209065851532075

fc2.weight f8 [30, 25]
0	0xbfda93d83124d81e	-0.41527371215068054
1	0x3fc342f6e5a1120f	0.1504810925708999
2	0x3fa32424cd68a2f9	0.037385129999455154
3	0x3f95c4ea7744030c	0.021258986977957625
4	0xbfa8f547f1c092d7	-0.04874634576871067
5	0xbf77fe6a1d6d7b8f	-0.005857862960367734
6	0xbfa9cb724dc57589	-0.05038029860836974
7	0x3fc4770a685a99d6	0.1598828324833465
8	0x3fb2994d081022f2	0.07265168616153142
9	0xbf1abe1405e0ba87	-0.00010201451502276681
10	0xbfb50893258069b3	-0.08216209092680664
11	0xbf975fcb304c3f1a	-0.022826361487260895
12	0x3f3d245704347755	0.00044467091011478793
13	0xbfc29e981591e4bb	-0.14546490720002744
14	0xbfa0b574d253c315	-0.03263440196486137
15	0x3fa46a92e7ad8b05	0.039875593930238686
16	0x3fd11d36663160f7	0.267407989309063
17	0x3fca0f683c83d682	0.2035951896174773
18	0xbf2e6b16a1dbece1	-0.0002320733191750529
19	0x3f846334652bde68	0.009954842889313656
20	0x3fb99bbb7bf4ec6c	0.10003253723418631
21	0xbfb6d8ac2040c4c2	-0.08924365794588865
22	0x3f996a511e53e5ab	0.02481962916951878
23	0xbf41f7e17c0b7ee0	-0.0005483485220700544
24	0xbf997ab9494a598b	-0.02488221654729154
25	0xbfbc03e953702ddd	-0.10943468367638993
26	0x3fc901f2048b89cb	0.19537186834266004
27	0x3f8fae23bf2191ec	0.015468863745078353
28	0xbfa23a6ba536800f	-0.03560196296461992
29	0xbf75f9390fd6a97c	-0.005364630601813022
30	0xbf8a35620483ef39	-0.012797132265852095
31	0xbfb261554a6920c2	-0.07179768625894936
32	0x3fbaadaf5d26f615	0.10421272300933311
33	0x3fb90bd93486fd51	0.09783704311756948
34	0xbf3ae9782b2c3bf9	-0.00041064437680032835
35	0xbfaba4995ba75514	-0.05399016612833854
36	0x3f9091bdd3d99006	0.01618095975426572
37	0xbf912c617652f3a7	-0.01677086147968834
38	0xbfc2865fd248931e	-0.14472577827214023
39	0xbfa67795c097ed3e	-0.043881110916084584
40	0x3faa602125d117d1	0.051514659754090204
41	0x3fce0ec7782612af	0.23482602469097943
42	0x3fcda43025a2c751	0.23157312238395858
43	0xbedfb97654fdea55	-7.563701117758468e-06
44	0x3f98dde2a3f762e7	0.024283925302230804
45	0x3fbf44835e641869	0.12213917784183227
46	0x3fbc2edd549f6f5f	0.11009009662614976
47	0x3f53b38e80578e6a	0.0012024776091203123
48	0xbf32ef1bd663d445	-0.0002889101946402277
49	0xbf97bc22ce7eed01	-0.023178619245055824
50	0x3fbb7823d8ed3cf4	0.10730194135725296
51	0xbfb2d1ac369a7f42	-0.07351185162633292
52	0xbfd4d36e10506855	-0.3254046592061333
53	0xbfb599ef07708b0b	-0.08438009196883571
54	0x3fab08a6ec61b82a	0.05280038486021994
55	0x3f84edeaa969cb78	0.010219414992411066
56	0x3f921755441da37b	0.01766713360067083
57	0x3faf3ea586667a52	0.06102483049038611
58	0xbfc665c24069e079	-0.1749804319877091
59	0xbf4324fb7e5d08b0	-0.0005842426296356531
60	0xbf86ea41d5eaa3af	-0.011188997593608222
61	0x3f61fdafcee5082a	0.0021961625817832524
62	0x3faa78ea41afa53b	0.051703758734058934
63	0xbfa7afe1e19a79a9	-0.046263750829200596
64	0xbfd8f9cb5483bb83	-0.3902462315881438
65	0xbfd26c7039daf937	-0.28786855363786706
66	0x3fbda402573c471a	0.11578383092662783
67	0x3fa6f6f00e0be4aa	0.04485273524728346
68	0x3f3520630e9368e0	0.0003223649824356644
69	0x3f8836ef5d4f8f67	0.011823530230635716
70	0x3fa5c567b9402100	0.04252170692785917
71	0x3fab913a31174ab3	0.05384237145667239
72	0xbfd32af365d199fc	-0.29949650710332754
73	0xbf28cbc5225916eb	-0.00018917828963276677
74	0x3fa3025f03030084	0.037127465360300455
75	0xbfb69f35b186b8b3	-0.088366847840663
76	0xbfa09cd86c697f3c	-0.032446635469339985
77	0x3fa02cd5cb1a01e2	0.031592064898180686
78	0x3f98ba6cf919eb8a	0.024148657516416296
79	0x3fcbfd798b0be250	0.2186729363381965
80	0x3fc4332ca1d19eda	0.15781171704587998
81	0x3fc175e833e055b2	0.13641073735258896
82	0x3fd1873892c004f8	0.2738782342058381
83	0xbfb0f92151d40cde	-0.06630142448198081
84	0x3f416c9d8da3b687	0.0005317467978593484
85	0x3fc2e84cf9549c1f	0.14771425413457082
86	0xbfae355fd07d8fb8	-0.059000963402268736
87	0xbf94d432a18d421d	-0.020340720281924008
88	0x3fb6b314b7607383	0.08867005803081267
89	0x3fb1863c1597415b	0.06845450904007093
90	0xbfda0ff109fd1fc1	-0.40722299552407654
91	0xbfa180580fc44b08	-0.03418231193986371
92	0x3f72203d13ea61c4	0.004425276360642664
93	0x3f3beb38cdc3dddb	0.0004260076218680333
94	0x3f861cdb64a628fd	0.01079722786814274
95	0x3fc224a8af86a78f	0.14174374170880497
96	0xbfce243715b63d6b	-0.2354801994338048
97	0x3fac7c22f18df19d	0.05563458632147731
98	0xbf3462ed627a56b7	-0.0003110723068656495
99	0x3fccc7ddeb27799b	0.22484945280207289
100	0x3f984fad1401cbb6	0.023741440149432434
101	0x3fa07d1111f598c9	0.032204183046631814
102	0xbf8412dd3d0fe484	-0.009801605630842987
103	0x3fc26a408dbe0129	0.143867558679639
104	0x3fd0c8ff30df1131	0.26226787350266806
105	0x3fc434d6a4bb45c1	0.15786250155956164
106	0x3fbf8a3e5627323b	0.12320317843768518
107	0x3fc42ab6e63124b4	0.1575535415634356
108	0xbfbf10f3ecc52728	-0.12135242968102189
109	0x3f3835d19479edb8	0.0003694187803160126
110	0xbf896807b2523c67	-0.012405452851707644
111	0x3f9cb87a9b364475	0.02804748127306707
112	0x3f9da86f3be0224a	0.02896283915473167
113	0xbfa7bac7061350d1	-0.04634687375224334
114	0x3fa9026863115aa3	0.04884649476359939
115	0xbfd329e038689ae9	-0.29943089970258413
116	0xbfa6585384cbec2c	-0.0436426257710639
117	0x3f8e90b4b9f035d2	0.014924442219149823
118	0xbf3b4f524c4c3445	-0.00041671523312986444
119	0xbfb595a2c4d3d049	-0.08431451135021563
120	0x3fb9cc2821bca05c	0.10077143500950697
121	0xbfb443f7173f9caf	-0.07916206662740664
122	0x3f8250c93970e203	0.008943149629076613
123	0xbf3085be8430c9a0	-0.0002521124008040502
124	0x3fcecb9d0a175720	0.24058878891690316
125	0x3faf33853d9bac55	0.06093994500209791
126	0x3fab7868ae4cd9ee	0.05365302207649224
127	0x3f9b75f75e33411c	0.026817193150067017
128	0x3fc590ad4d6448cc	0.1684776904954276
129	0xbfb1dc44c6ac669c	-0.0697672829668598
130	0xbfb1968d392c4017	-0.06870348592588048
131	0xbfb2b86fa777ddd6	-0.07312677229480555
132	0xbfce2ebaa460fa9a	-0.23580105806646118
133	0x3fc01855fe830719	0.12574267318091684
134	0xbf28541d923fc318	-0.00018561230638127683
135	0xbfb84fece39f95e6	-0.0949695640298028
136	0x3fc5a4b4d5b27a89	0.16908893999512412
137	0x3fc65304926056ab	0.17440850398331995
138	0x3fa0fc0734f8e1fc	0.03317282220490722
139	0x3f98c2108a9c9116	0.024177797756366713
140	0x3fd0fcdc59e1ead1	0.26543339517199366
141	0xbfc53428e95adc6c	-0.1656542910984372
142	0xbfb1e40b82057564	-0.06988593983029073
143	0x3f10316e20efc460	6.177172348011259e-05
144	0xbfae8b57c1210be1	-0.059656851125076356
145	0xbfc20b24fac8af3e	-0.1409651016741637
146	0x3fcac63ab5240b47	0.2091744789578007
147	0x3f8be490672efe25	0.013619545124924201
148	0x3f265fd57b90cf15	0.00017070275296903666
149	0xbfad6d2ab29eb6eb	-0.05747350149554883
150	0xbf24f510838766ad	-0.00015989138206755818
151	0xbf10d37af02f07ea	-6.418645720798725e-05
152	0xbf290240823a5487	-0.00019080197772739315
153	0xbf17e25c766b882f	-9.111108156958988e-05
154	0x3f40d38cd9ae79a8	0.0005134999986358595
155	0xbf419741a1d0cea4	-0.0005368299931718013
156	0xbf46803dae0b539f	-0.0006866742297356626
157	0x3f3fb46e6ae3b29d	0.0004837770055832554
158	0xbf2c557a5439674e	-0.00021617048524796362
159	0xbf426ca91d94bb56	-0.000562269760086535
160	0xbf44d726dd8e4b8e	-0.0006359996578900616
161	0x3f129615b3b0b28a	7.090098817803307e-05
162	0x3ee60828e27179fa	1.0505616115871915e-05
163	0x3f14f87195a221e9	7.999604477693764e-05
164	0x3f3e8080452eec74	0.0004654229316504784
165	0x3f3e500f96164633	0.00046253567242002523
166	0xbf44fc667a57f96e	-0.0006404400234599047
167	0x3ef6adc5fd7779e8	2.1628191317785416e-05
168	0x3f3e8bc1d1dbdf9f	0.0004660938446785448
169	0xbf33ed6efe961248	-0.0003040691359148845
170	0xbf4a93758b8aacf3	-0.0008110355330094562
171	0x3f3ae33cea857965	0.0004102729531235887
172	0x3f1dda6e5a566c83	0.00011388109722647488
173	0xbf421642ad1722bc	-0.0005519700591146352
174	0xbf4581b889119d0f	-0.0006563330699806152
175	0xbfbdf5adc4fe2400	-0.11703001078980435
176	0x3fc90b41afed4b62	0.1956560238855572
177	0xbf7b1c878ad249a8	-0.006619004690167442
178	0x3fb0a4ecc86b6fc0	0.06501655476625867
179	0x3fc2f7e7dff9dab9	0.14819048343971078
180	0x3fb793303ac88ba2	0.09208966670170907
181	0x3fb2d51fdbcc7f8b	0.07356452099020154
182	0x3fd37fa4b29a0c99	0.3046657318265687
183	0x3fa12ea5dbb10052	0.0335590201070778
184	0xbf33035b0d959bd9	-0.00029011700606534696
185	0x3fb6d9cce3309a03	0.0892608694708557
186	0x3fb4a9b6fd371c39	0.08071464235318694
187	0x3fa81461e78b6421	0.047030505671223695
188	0x3fb13be7cffdd570	0.0673203356544343
189	0x3fa769e7e1b3819b	0.04572987203733022
190	0x3fb3a3e2da782846	0.0767194541332695
191	0x3fce4b7c1e4a1e45	0.2366786144159382
192	0x3fcca092574b41d1	0.22365025770569827
193	0xbf44d285410e9205	-0.0006354475645947161
194	0xbfcd51523502b0b7	-0.22904422367481
195	0x3fc90b879b2b9644	0.19566435887024813
196	0x3fb3ac8c1eb4347b	0.07685161351783336
197	0x3f64777a40a89890	0.0024983775849874504
198	0xbf3863b2181804bf	-0.0003721532631005379
199	0x3fbe22f68347762b	0.117720992136548
200	0xbfb379dd78d6ceee	-0.07607826423810213
201	0x3fb78baa8e77a15c	0.09197488764005385
202	0x3fb1f3631ad45526	0.07012004284873238
203	0x3fa46e31ee604d80	0.039903221462874505
204	0xbfc3d177b84a5026	-0.1548299455504331
205	0xbfbb0c1ca69cb572	-0.10565356319121635
206	0xbfc060616dee68b4	-0.12794130199183018
207	0xbfb3197a17ef5687	-0.07460749706600654
208	0x3fca3c748baf7fe9	0.20496994801123883
209	0x3f16d89d6cdd648e	8.715115401737776e-05
210	0xbfb3b5537cfbd52b	-0.07698556710586917
211	0x3fb434ba3fd0a1cb	0.07892955835325847
212	0x3fb6cf93b1d5e09f	0.0891048726242638
213	0xbfb768c3beca5d6f	-0.09144233139010337
214	0xbf62f08e19c47d38	-0.0023119712260634383
215	0x3fcfa23cbaf9f33d	0.24713858728127916
216	0x3fb73814059393d7	0.09069943557876968
217	0xbf5ef6d8ce8b9ea9	-0.0018899075750428518
218	0xbf471469a6f9c875	-0.0007043376808282391
219	0x3f9805dacc879ee9	0.023459833844667797
220	0xbfaaa954f4da6fc3	-0.05207314957553379
221	0x3fb97cc8707c2b11	0.09956028696266751
222	0x3fa9797637dfbd70	0.049754804916910866
223	0xbf435c692e806c1b	-0.000590850218034847
224	0xbfc2c79a503a662f	-0.14671639363659625
225	0xbf41d8e14b771d51	-0.0005446529457281778
226	0xbf477f1016be8f51	-0.000717051368600322
227	0xbf2296332db28e75	-0.00014180540788287827
228	0xbf3c454aa80d43be	-0.0004313761965493676
229	0xbf28a31767e72d4c	-0.00018796597210122624
230	0xbf444f6b2dba4829	-0.0006198190053103891
231	0x3f3b26d97c091ce8	0.00041430291824835633
232	0x3f0c02d864debcdb	5.342696077492169e-05
233	0xbf11eb3e1428b556	-6.835523985478562e-05
234	0xbf3ac74e7cbe2ed6	-0.00040860811417851633
235	0xbf1d04123c8a98ac	-0.00011068688685131567
236	0xbf0884e3c8c3c259	-4.6766473220109704e-05
237	0x3f4473634204078f	0.0006241068513477154
238	0x3f44091f58ad52bc	0.0006114390429084664
239	0x3f2fefc9765dfe17	0.0002436574388262481
240	0x3f11176fed46ce64	6.519909522389452e-05
241	0xbf46c4acd885627a	-0.0006948322270928363
242	0x3f07a2e9c399cec0	4.508281604112324e-05
243	0x3efb697c6f0ecf5a	2.6142172774703535e-05
244	0xbf39f09cd92c65bd	-0.00039581136040708534
245	0x3f27bad826a5a63a	0.0001810444694670276
246	0x3f358ac0faa0f057	0.00032870494272053047
247	0x3f2456b5efb0f742	0.00015517207052256383
248	0xbf3217e398c6270e	-0.0002760821014581174
249	0x3f3f0f7c03434b74	0.000473945404576507
250	0xbfb355aa99e608aa	-0.07552591569222736
251	0xbfd089fe7b55da4a	-0.25842248959034875
252	0xbf990f1634a1963c	-0.024471613848069604
253	0xbfb239cbdea05dd3	-0.07119440255370728
254	0xbf9f8236059bc76a	-0.030770153133694057
255	0xbfcb093444ff3b74	-0.21121838921541392

fc2.bias f8 [30]
0	0x3fc8a7dcbdd4d907	0.1926227499877273
1	0x3fc6acfce6028cc5	0.17715417128520108
2	0x3fc65086adb890be	0.17433246118992501
3	0xbfc195d40b2c8458	-0.13738489671325982
4	0x3fb59256e8502f8a	0.08426421329221348
5	0x3fc29047edc917d9	0.14502810583706952
6	0xbfb2d2994af79c27	-0.07352598266844322
7	0xbfd12e62864ae9d3	-0.2684561072780102
8	0x3fc0523a316ba691	0.12750937855826242
9	0xbfc245eebda30ebd	-0.14275917300812138
10	0x3f99d204d752e1bd	0.02521522106391826
11	0xbfba2017a49d7001	-0.10205219048424398
12	0x3fd405ed003add65	0.31286168119864605
13	0xbf88cc08851b472f	-0.012107912599649133
14	0x3fc2173398a9a4a8	0.14133305505973692
15	0xbfc24bfc02941f73	-0.14294386030109826
16	0x3fcf79fc5625acf0	0.2459102078094939
17	0xbfbe7da87400f2c8	-0.11910488922235196
18	0x3fcf97ddcc4e13be	0.24682209468678978
19	0x3fc980f7073470fd	0.19924819804953833
20	0x3fbe9da8f981eced	0.11959320155613158
21	0xbf91b7bdb51251dc	-0.01730247895882707
22	0x3fb3442612ec88cc	0.0752586170388298
23	0x3f623ed1f410b5d2	0.0022272205974533743
24	0x3fb8ada08a88e23a	0.09639933950610038
25	0x3fb1da5854aedaa0	0.06973793094116809
26	0xbfc7cbfc07267388	-0.1859126124299133
27	0x3fc8f486fd43435b	0.19496238104195637
28	0xbfc61cc9feed1d43	-0.1727535719639751
29	0x3fcefd4d13ef4581	0.2421051356637172

fc3.weight f8 [15, 30]
0	0x3f39cbb6750b4a6e	0.0003936119510800422
1	0xbf36dad750fdaf00	-0.00034873730418526205
2	0xbf4213e610b44b01	-0.0005516885152324348
3	0x3f265695cb38210f	0.0001704271177092116
4	0xbef570484e34b751	-2.044544534134742e-05
5	0xbf38521de99291e5	-0.0003711054828932344
6	0x3f374d02afa6c443	0.00035554233150053935
7	0xbf3e84f4e67d5d0c	-0.000465688505291565
8	0xbf30b037437bbfbd	-0.0002546439095416594
9	0x3f2a612162d4c261	0.00020125896973290355
10	0xbf1a320db55016f6	-9.992798489130345e-05
11	0xbf40298d0cd898cd	-0.0004932345124799786
12	0xbf409071457137f9	-0.000505500133735514
13	0x3f23dd2562cc36c9	0.0001515491616363356
14	0x3f28f0f257cd4c7d	0.00019028623855863242
15	0xbefb6bcc21a52e93	-2.615078310812134e-05
16	0x3f2ce203af5334be	0.00022035880070917462
17	0x3f409315c7bfb790	0.0005058151577921211
18	0xbf37ae9b42da7476	-0.00036135950618094244
19	0x3f3ff667a8de0676	0.00048770933869244444
20	0xbf18ffb69b3ef567	-9.536315957255557e-05
21	0x3f31ddfeda48e18f	0.00027263137807012004
22	0xbf324c4d583053ad	-0.0002792061642947163
23	0x3f4073978688fb9b	0.000502060877870625
24	0x3f33b7462372bfd8	0.00030084097256643854
25	0xbf2e8da2d2e86dfa	-0.0002331029185861226
26	0xbf3762c655ca9713	-0.00035683958211972614
27	0x3f3a1f0b34a1e984	0.0003985788686190694
28	0xbf2205a9b1d1ade9	-0.00013749786822657366
29	0x3f318751f62cfbb3	0.00026746512428482276
30	0x3fc445e789a77ffb	0.15838331433678818
31	0x3fc81a45c9ac6d8d	0.18830177638379234
32	0xbfd2786f400bf32c	-0.2886007428603985
33	0xbfb52c888442a42f	-0.08271077374469436
34	0xbf82187d5ed40f64	-0.008835772949630623
35	0x3f968ea48cf978ed	0.022028514007950518
36	0x3f075c355800e7b1	4.455602447746234e-05
37	0x3fc6619c0b3f1e01	0.1748538069643786
38	0x3fc7e20c62d0729a	0.18658594918169485
39	0xbf315221761f3919	-0.00026429478577662393
40	0xbf8bccdffd77b26c	-0.013574361727443938
41	0x3fbb9172a1bf12f3	0.10768810700308133
42	0x3fb72b2a25bd6829	0.09050239011176643
43	0x3fbdfb074f53fc1a	0.11711164175720548
44	0x3fba046100cad357	0.10162931699126197
45	0xbf2106fa47f4e563	-0.00012990765751811758
46	0xbfcae9320f601891	-0.2102415633273194
47	0x3f3ea4a3be6fd19b	0.00046757695821433306
48	0xbfd1a8adf4fe4662	-0.2759203808319396
49	0xbfd16f20c5c1ddf6	-0.2724077159141126
50	0xbfbae2a2e184b950	-0.1050206947881851
51	0xbfbe453dee0e8b88	-0.11824404775556563
52	0xbfbe7b3dcab2bea0	-0.11906801413237611
53	0xbfb9bb1822a2a650	-0.100511082130333
54	0xbfa4cc8329f6430e	-0.040622805473622944
55	0x3f6e8fc6ad47e75b	0.003730667153146889
56	0x3f29603dfa076357	0.00019360310126506172
57	0xbfd58802516d09a7	-0.3364263339209636
58	0x3f2393785f3e84aa	0.00014935345063541344
59	0xbfc0bb19d77aebd7	-0.130709867682383
60	0x3ec7674e5b77b191	2.7899193033501973e-06
61	0xbf0657431e9c4ce8	-4.2611823870464434e-05
62	0xbf29f018d15e0f12	-0.00019789030983129917
63	0xbf389ddb16e0fe0e	-0.00037561987744891355
64	0x3f22aee7548a82b7	0.00014254163604212274
65	0xbf340ef3b5878e81	-0.00030606698922339837
66	0xbec8de8fd2b2af2e	-2.9646613675850057e-06
67	0xbf2f8c073db5550e	-0.0002406843985719793
68	0xbf13af82924d7cee	-7.509455151709688e-05
69	0x3f0f34474eb20470	5.951731312681889e-05
70	0xbf327bc856a8db00	-0.0002820362193775433
71	0xbf22414200234392	-0.00013927393599158213
72	0xbf3c29f596360a54	-0.00042974706430968135
73	0x3f4209327e24749a	0.000550412802372019
74	0xbf219d25252b6ffd	-0.00013438299591583816
75	0x3f33e4fbe154f24c	0.0003035654966259446
76	0x3ee70bf9acf28307	1.098956036421759e-05
77	0x3f3fcdce577033be	0.00048528945575370883
78	0x3f28bee0a9f2cde8	0.00018879406431936076
79	0x3f3597d7a01cb340	0.0003294850758830854
80	0x3f372948bb50d002	0.0003534128730422471
81	0xbf190f3feeae1b7f	-9.559467041074346e-05
82	0xbf22a3558bfe6a69	-0.0001421968390758644
83	0x3f298ae6527f0fd1	0.000194874396809762
84	0xbf397a41e11c83fd	-0.00038875683195455075
85	0x3f40fd1510285a89	0.0005184510085339415
86	0x3f3c3e64a2a5af2d	0.0004309650127172101
87	0xbf08b3fc8c26a91e	-4.7117371212950505e-05
88	0x3f00eb248b3d3e31	3.226952813284131e-05
89	0xbf389bd0834ed59f	-0.00037549820563794774
90	0x3f79520717632838	0.006181743336307881
91	0x3fadcea47007e5a3	0.058217180896416275
92	0xbfd0bc5ce0529956	-0.26149675280102735
93	0xbfaa8d2154215b59	-0.051857987899601006
94	0x3fb286eb83c4792c	0.07237121550540299
95	0x3fc08287f051324d	0.12898349031674386
96	0x3f313f57298fd676	0.00026317480074964457
97	0x3fcf5eb93eabfa9b	0.24507823524614455
98	0x3fb4e50e0c369e23	0.08162010000398161
99	0x3f4097e88309f236	0.0005063901244991068
100	0xbfc46147c30f7803	-0.1592187597697717
101	0x3fbf389232fd92fb	0.12195695633779373
102	0x3f8258986986c403	0.008958044739161513
103	0x3fd02e576fc5712b	0.25282846369897766
104	0x3fc8bdc4685effde	0.19329123588795388
105	0x3f3cd15248ac2aea	0.0004397226227161171
106	0xbfd23e5ef9d02867	-0.28505682369053037
107	0x3f35ba852a8bf043	0.0003315520394122676
108	0xbfcbdcb7d027f235	-0.21767327941769712
109	0xbfc99c21c4d60be3	-0.20007726775301568
110	0x3f83f0c811cfeac8	0.009736598056396942
111	0xbf9424a22ff4c1f2	-0.0196709958810874
112	0x3f936187744a5b3d	0.018926731560522148
113	0xbfd66ccb752b0dcd	-0.35039030496792806
114	0x3fb085a02c162b57	0.06453896595318774
115	0xbfca7e586ff13c11	-0.2069807573884366
116	0xbf2c40a1df8e17a2	-0.00021554924003569254
117	0xbfd9d26fdb7680da	-0.4034690516655367
118	0x3f40cdda4a2f06ab	0.0005128208034578993
119	0xbfbc46730d980403	-0.11044997293357998
120	0xbfc3227a461ddb85	-0.14948967384017578
121	0xbfbe5f6e4ec89e3e	-0.11864365981511413
122	0x3fc083a074daedf3	0.12901693063564287
123	0x3f804b1963541aff	0.007955740302816759
124	0x3fa0d030a55516b5	0.03283836382119657
125	0x3fc9f1d85e3f49ab	0.20269302942194875
126	0xbf031c14f9cdad4b	-3.6448850756122e-05
127	0xbfb2d7cd81b9d445	-0.07360538880478014
128	0xbface5076f5b5d65	-0.0564348529275616
129	0xbf400e22e1e63b7d	-0.0004899664234459946
130	0x3fc7a055d4111d4b	0.18458054404093568
131	0xbfa8ed084e916c72	-0.04868341406901146
132	0x3fadd866df508623	0.058291640052868375
133	0x3fc35e51826a4006	0.15131586902543875
134	0x3fc43eec2e1ba62f	0.15817024470679672
135	0x3f27e66d51dd9e24	0.00018234333486620666
136	0xbfc1b7e80755d8f2	-0.13842487676783538
137	0x3f256e4e9cb9d8c0	0.00016350469228471574
138	0x3fbea7d2109494f1	0.11974823860926499
139	0x3fc4eff8520baa63	0.1635733032811287
140	0x3fca0f28fe0ed82a	0.2035876503484258
141	0x3fc4233d4b1ef7ad	0.15732542198196367
142	0x3fce8bc994a6b39e	0.23864097364767373
143	0x3fc7a68d34bc3893	0.1847702510353356
144	0x3fbd5f3f96640ce7	0.1147346250691502
145	0xbfa9ca458c64316c	-0.05037133539926483
146	0xbf0f1183213dc085	-5.925828386821409e-05
147	0xbfb30feefe1fdf05	-0.07446187690936419
148	0x3f351ff595737bb9	0.00032233949373322194
149	0xbfa6a4e18c505efc	-0.0442266925603558
150	0x3fa53f949f7b641d	0.04150070616533006
151	0x3fb17a6f6b7de21d	0.06827446340856409
152	0x3fc20ae2beb66f93	0.14095720588818192
153	0x3fd0aabf3288a5f6	0.2604215615743607
154	0x3fc8e9c8bb264f85	0.1946345247093825
155	0xbfa4c70687f1dcd8	-0.04058094415170793
156	0xbf26721d920ddff7	-0.00017124758690179018
157	0x3fdafa29a2727e8d	0.42151871551502823
158	0xbfbf3a9212a6c2dc	-0.12198746638638219
159	0xbf3e10f3412fe59c	-0.00045877398332513377
160	0xbfcb55aad8c35e6e	-0.2135518606580606
161	0x3fcc465d82de5cc9	0.2208973778731205
162	0xbfb7fc7c8bdf4d5d	-0.09369638838625378
163	0x3fc000daec2fee02	0.12502609760836952
164	0xbfb007865bf70da8	-0.06261481995811968
165	0x3f345fe1333113e2	0.0003108906559570729
166	0x3fce90dcad8d6b90	0.23879583811034566
167	0x3f30502191b94876	0.0002489168125282612
168	0x3fc469a6e5d4fd45	0.15947424146905056
169	0x3fb8fe76b80c1cf3	0.09763280862181371
170	0x3fafc4f9e86ccdf3	0.06204968416423275
171	0x3fb17981afabe69e	0.06826029337744408
172	0xbf8a946f4b3af30c	-0.012978429301591564
173	0xbfc7caf96bc3529b	-0.18588178407539577
174	0x3fc1f591077efc8b	0.14030659547822597
175	0x3faa36c3fa8fbda3	0.05119907792674929
176	0xbf3ce4d41260e939	-0.00044088532957044544
177	0x3fd1df2464984697	0.27924451659883104
178	0x3f3906ba38e25dd6	0.0003818707126667908
179	0x3fc7a2ea5d2f9ead	0.18465928602312456
180	0xbfb742a2227c9438	-0.09086049406012442
181	0xbf84f44baa56b06e	-0.010231581817457615
182	0x3fcaf0782c0dbad3	0.21046354437881706
183	0xbfcdcd983c24eac4	-0.23283675133446569
184	0xbfa501722da9d6ab	-0.04102665717520656
185	0xbf8f49b5d7fb9129	-0.015277310041206764
186	0xbf0f7235eb0a288c	-5.997874302916912e-05
187	0xbfd102eee558b183	-0.2658040275298605
188	0xbfbb63c14f1315a6	-0.10699089222460731
189	0xbf3d5d4524bcf5cd	-0.00044806421350415405
190	0xbf93729bb463c94d	-0.018991883168334046
191	0xbfc0868ccdf63f30	-0.12910614067777137
192	0x3facc6e362e4c303	0.05620489675709985
193	0x3fa9943736e07cba	0.04995892090686867
194	0x3f6ffcbcca317578	0.0039046942998043864
195	0xbf285dfb21b0dc54	-0.00018590632029866444
196	0x3fd0712e78e2129a	0.2569080524920452
197	0xbf3e08a116a19abe	-0.0004582780153498492
198	0x3fcbe0f32ce22d28	0.21780242625786994
199	0x3fc7d201e37be57e	0.1860964165460181
200	0xbf999f057aba5acb	-0.02502068101474712
201	0xbfccb2f3249a1ab6	-0.22421111380773134
202	0xbfbe4d5ddb28f53f	-0.11836802101693865
203	0xbfd11a583bcb5c69	-0.26723295058531576
204	0xbf9e1b5e342184f0	-0.029401275569743868
205	0x3fb04b26360c728b	0.0636466867403646
206	0x3f349a888df0e604	0.0003143866906075434
207	0x3fd4481297ee79f4	0.3168989642817046
208	0x3f2042b16d7c5611	0.00012405792107787796
209	0x3fc1d14fe67599df	0.13920019867801067
210	0x3fa9b290eab6a1ad	0.05019047608522285
211	0x3f71d2fa578ca38f	0.004351594828030949
212	0x3fd085bb3a6a0c12	0.2581623144580486
213	0x3fc0997b048b7954	0.1296838543120865
214	0xbf872968b0e2483f	-0.011309450052326862
215	0xbfb901a6ec56ccf7	-0.09768145818707184
216	0x3f303ced76eb78c8	0.0002477721927060081
217	0xbfc102043eab5259	-0.13287404117604032
218	0xbfad9c1f2515434d	-0.05783173873590517
219	0xbf16c5f1a8f9e945	-8.687293506596135e-05
220	0x3fd0234fede432d4	0.2521552870901307
221	0xbfa8d701a0c5d4e3	-0.04851536834295602
222	0x3fb012a382e46986	0.06278440423594675
223	0xbfc7d28b4fbfc385	-0.18611279863355548
224	0xbfc75336c1ce9c70	-0.18222698653446257
225	0x3f23d4e191512f5d	0.0001513028479699319
226	0x3fd305e6616b6998	0.2972351027834974
227	0x3f3c936a292886cb	0.0004360326940134717
228	0x3fce5f42890f8e3d	0.23728210155887722
229	0x3fcc84a0b5fe7b65	0.2227974785464212
230	0x3fab80f33ef9ce26	0.05371818679568845
231	0x3fb4bca8c9e44503	0.08100371293064161
232	0x3fa26e84c0e28eed	0.035999439759761255
233	0x3fddf92fb8bf3701	0.4683341316384571
234	0xbf5cc9edfdee8e0d	-0.001757128156648305
235	0x3fd26ede4830a487	0.288016863344247
236	0xbf40e13bb236d2f6	-0.0005151311383345392
237	0x3fd7c546dee16a6d	0.3714158226554563
238	0xbf3ad8467e9d45d9	-0.00040961953219661795
239	0x3fc26559c7c4a949	0.14371797804171596
240	0xbfbc31982cc5d0dd	-0.11013175099452917
241	0xbfb359485a3aa1ff	-0.07558109476907048
242	0xbfce7e1a0816af73	-0.23822331805183303
243	0xbfaf0bde20216db4	-0.06063741819590565
244	0x3fac6ef3250b3c17	0.05553397967525358
245	0x3fca8f42dd815262	0.20749698463136484
246	0x3f405e2dadda1e5b	0.0004995081942106948
247	0xbfa21f80ec7753a8	-0.035396603456013864
248	0xbf8090ce53f7afe0	-0.008088695466504647
249	0xbf1f1875a17840ca	-0.00011862009011332216
250	0x3fb7f7c693a7b667	0.09362450699674128
251	0xbf745aeefaa8b235	-0.004969533455135668
252	0x3fa73188f38d4921	0.04529979680104846
253	0x3fd118f0e57a0a24	0.2671472779258315
254	0x3fcb0782adf273bd	0.2111667012549371
255	0x3f34ca3e88dfd407	0.0003172304794810125

fc3.bias f8 [15]
0	0xbfb63229aee0cf5c	-0.08670292396055629
1	0x3fd0f7d9f5e8032d	0.26512764944350203
2	0xbfa40c85e173cd44	-0.039158042689360545
3	0x3fd4aa53e2a88e53	0.3228959763966703
4	0x3fc3544645c32105	0.15100935369833493
5	0x3fbb68e614eaf6c8	0.10706937800110972
6	0x3fb5d8205afe2ae5	0.08532907697205479
7	0x3fc6d7a50a66022d	0.17845595367181613
8	0x3fc7c808ca5c3e02	0.18579206353068406
9	0x3fd02eb5ea7d8f4b	0.2528509893365835
10	0xbfb70b89f8a36cdb	-0.09001982040665572
11	0x3fbb58b9f4a56855	0.10682260725789779
12	0x3fb2c746ca5459cb	0.07335321845707836
13	0x3fc7836985f44461	0.18369788208704832
14	0xbf613d2d55a4af8b	-0.0021043668213191528

fc4.weight f8 [3, 15]
0	0xbfa19438e8b0f3ce	-0.03433397140950199
1	0x3fe07aa2288c6140	0.514969901271833
2	0x3f8f3d52f9a98e12	0.015253685230340461
3	0x3fdda7c9c8b07cc2	0.4633659801347215
4	0xbfdc58cb277c1e56	-0.4429195294946785
5	0x3fe2300fc94ed77f	0.5683669025226975
6	0x3fd29c96ba67c4f0	0.2908074207653746
7	0xbfde45bca2ef3d59	-0.4730064002187269
8	0xbfc18ed0fe4cd26a	-0.13717091004368182
9	0xbfdf4ee4dc60bee4	-0.48919030686646026
10	0x3f78ab69df1ab39c	0.006022847710181713
11	0x3fc4c9506401bc79	0.16239361651557596
12	0x3fb10bd386ea59b9	0.06658670467218188
13	0x3fc19c556d3ab50c	0.13758342584097993
14	0x3f9198320dddba63	0.01718214234954941
15	0x3fa4fd9e268a4322	0.04099745007000012
16	0x3fd38d7d8e2c3f57	0.30551089176241447
17	0x3fb1babbf4c3d171	0.0692555878229706
18	0xbfd20578057ec0a6	-0.2815837911284781
19	0xbfdd2ae09444b2e4	-0.45574202040988454
20	0xbfcda45965b3eca9	-0.2315780397983407
21	0xbfd45c4943366447	-0.3181327015277628
22	0x3fd74ac62582d019	0.36393884337599186
23	0xbfe02031cfa6a68f	-0.5039300018008407
24	0x3fd9f4ccbb6a055d	0.40556639005816014
25	0x3fa3816190d9c667	0.03809647458264181
26	0x3fe86deb44bb0c1b	0.763417848815496
27	0xbfc68741983a0bf5	-0.17600269253679782
28	0x3fd71cf65ba153ea	0.36114272068272035
29	0x3fab5c93d6947589	0.053440685218656254
30	0x3fb1cac509ebf719	0.06950026981573067
31	0xbfd801101f041733	-0.37506487873939703
32	0xbfb15c89ebf64aa6	-0.06781827936928639
33	0xbfda1d1ffce49a7a	-0.40802764603214536
34	0x3fa648a2ce1fe1a9	0.043522918378531124
35	0x3fe1560dd35174e0	0.5417546393688575
36	0x3fe7a7805f9d19f9	0.7391969554381027
37	0x3fe4206f6d6e2484	0.628959382754275
38	0xbfd5bc909840f765	-0.3396340834477683
39	0xbfe0fe228d29c6b1	-0.5310223347753064
40	0xbf94785210002ce5	-0.019990236498455344
41	0xbfec2c14cdf7a770	-0.88038101413734
42	0x3fe8940d73756095	0.7680728201912809
43	0x3fe39c2f5a3d5fad	0.6128155481810517
44	0x3f940e7008186b26	0.019586325162985883

fc4.bias f8 [3]
0	0x3fc0c0e748506b03	0.13088694601977843
1	0x3fb1226dc78a25b5	0.06693159219334784
2	0x3f9c90e4a27655ef	0.027896473327549683
